MainModel(
  (language_model): LanguageModel(
    (embed): Embedding(9051, 25, padding_idx=0)
    (attention): Attention(
      (linear1): Linear(in_features=50, out_features=100, bias=True)
      (linear2): Linear(in_features=100, out_features=1, bias=True)
      (relu): ReLU()
      (softmax): Softmax(dim=1)
    )
  )
  (vision_model): VisionModel(
    (fc_layers): FCNet(
      (main): Sequential(
        (0): Linear(in_features=2048, out_features=50, bias=True)
        (1): ReLU()
        (2): Dropout(p=0.2, inplace=True)
        (3): Linear(in_features=50, out_features=50, bias=True)
        (4): ReLU()
        (5): Dropout(p=0.2, inplace=True)
      )
    )
  )
  (attention): Attention(
    (linear1): Linear(in_features=75, out_features=100, bias=True)
    (linear2): Linear(in_features=100, out_features=1, bias=True)
    (relu): ReLU()
    (softmax): Softmax(dim=1)
  )
  (vision_fcnet): FCNet(
    (main): Sequential(
      (0): Linear(in_features=50, out_features=100, bias=True)
      (1): ReLU()
      (2): Dropout(p=0.4, inplace=True)
    )
  )
  (text_fcnet): FCNet(
    (main): Sequential(
      (0): Linear(in_features=25, out_features=100, bias=True)
      (1): ReLU()
      (2): Dropout(p=0.4, inplace=True)
    )
  )
  (classifier): Sequential(
    (0): Linear(in_features=100, out_features=100, bias=True)
    (1): ReLU()
    (2): Dropout(p=0.4, inplace=True)
    (3): Linear(in_features=100, out_features=1, bias=True)
  )
)
Epoch 0 | Train Loss 0.002825, Train acc 0.64, Train aoc 0.57 | Valid Loss 0.003629 Valid acc 0.63, Valid aoc 0.51
Epoch 1 | Train Loss 0.002722, Train acc 0.64, Train aoc 0.68 | Valid Loss 0.003594 Valid acc 0.63, Valid aoc 0.54
Epoch 2 | Train Loss 0.002487, Train acc 0.71, Train aoc 0.76 | Valid Loss 0.003609 Valid acc 0.61, Valid aoc 0.54
Epoch 3 | Train Loss 0.002396, Train acc 0.74, Train aoc 0.79 | Valid Loss 0.003586 Valid acc 0.63, Valid aoc 0.56
…
