MainModel(
  (language_model): LanguageModel(
    (embed): Embedding(9400, 200, padding_idx=0)
    (attention): Attention(
      (linear1): Linear(in_features=400, out_features=500, bias=True)
      (linear2): Linear(in_features=500, out_features=1, bias=True)
      (relu): ReLU()
      (softmax): Softmax(dim=1)
    )
  )
  (vision_model): VisionModel(
    (fc_layers): FCNet(
      (main): Sequential(
        (0): Linear(in_features=2048, out_features=2048, bias=True)
        (1): ReLU()
        (2): Dropout(p=0.2, inplace=True)
        (3): Linear(in_features=2048, out_features=2048, bias=True)
        (4): ReLU()
        (5): Dropout(p=0.2, inplace=False)
      )
    )
  )
  (attention): Attention(
    (linear1): Linear(in_features=2248, out_features=500, bias=True)
    (linear2): Linear(in_features=500, out_features=1, bias=True)
    (relu): ReLU()
    (softmax): Softmax(dim=1)
  )
  (vision_fcnet): FCNet(
    (main): Sequential(
      (0): Linear(in_features=2048, out_features=500, bias=True)
      (1): ReLU()
      (2): Dropout(p=0.5, inplace=False)
    )
  )
  (text_fcnet): FCNet(
    (main): Sequential(
      (0): Linear(in_features=200, out_features=500, bias=True)
      (1): ReLU()
      (2): Dropout(p=0.5, inplace=True)
      (3): Linear(in_features=500, out_features=500, bias=True)
      (4): ReLU()
      (5): Dropout(p=0.5, inplace=True)
      (6): Linear(in_features=500, out_features=500, bias=True)
      (7): ReLU()
      (8): Dropout(p=0.5, inplace=True)
      (9): Linear(in_features=500, out_features=500, bias=True)
      (10): ReLU()
      (11): Dropout(p=0.5, inplace=False)
    )
  )
  (classifier): Sequential(
    (0): Linear(in_features=500, out_features=500, bias=True)
    (1): ReLU()
    (2): Dropout(p=0.5, inplace=False)
    (3): Linear(in_features=500, out_features=1, bias=True)
  )
)
Epoch 0 | Train Loss 0.016724, Train acc 0.73, Train aoc 0.79 | Valid Loss 0.026390 Valid acc 0.55, Valid aoc 0.61
Epoch 1 | Train Loss 0.016327, Train acc 0.74, Train aoc 0.80 | Valid Loss 0.026963 Valid acc 0.54, Valid aoc 0.63
Epoch 2 | Train Loss 0.015313, Train acc 0.76, Train aoc 0.83 | Valid Loss 0.024050 Valid acc 0.56, Valid aoc 0.63
Epoch 3 | Train Loss 0.015005, Train acc 0.78, Train aoc 0.85 | Valid Loss 0.023566 Valid acc 0.58, Valid aoc 0.62
…
