MainModel(
  (language_model): LanguageModel(
    (embed): Embedding(9400, 50, padding_idx=0)
    (attention): Attention(
      (linear1): Linear(in_features=100, out_features=10, bias=True)
      (linear2): Linear(in_features=10, out_features=1, bias=True)
      (relu): ReLU()
      (softmax): Softmax(dim=1)
    )
  )
  (vision_model): VisionModel(
    (fc_layers): FCNet(
      (main): Sequential(
        (0): Linear(in_features=2048, out_features=2048, bias=True)
        (1): ReLU()
        (2): Dropout(p=0.2, inplace=True)
        (3): Linear(in_features=2048, out_features=2048, bias=True)
        (4): ReLU()
        (5): Dropout(p=0.2, inplace=False)
      )
    )
  )
  (attention): Attention(
    (linear1): Linear(in_features=2098, out_features=10, bias=True)
    (linear2): Linear(in_features=10, out_features=1, bias=True)
    (relu): ReLU()
    (softmax): Softmax(dim=1)
  )
  (vision_fcnet): FCNet(
    (main): Sequential(
      (0): Linear(in_features=2048, out_features=10, bias=True)
      (1): ReLU()
      (2): Dropout(p=0.8, inplace=False)
    )
  )
  (text_fcnet): FCNet(
    (main): Sequential(
      (0): Linear(in_features=50, out_features=10, bias=True)
      (1): ReLU()
      (2): Dropout(p=0.5, inplace=True)
      (3): Linear(in_features=10, out_features=10, bias=True)
      (4): ReLU()
      (5): Dropout(p=0.5, inplace=True)
      (6): Linear(in_features=10, out_features=10, bias=True)
      (7): ReLU()
      (8): Dropout(p=0.5, inplace=True)
      (9): Linear(in_features=10, out_features=10, bias=True)
      (10): ReLU()
      (11): Dropout(p=0.5, inplace=False)
    )
  )
  (classifier): Sequential(
    (0): Linear(in_features=10, out_features=10, bias=True)
    (1): ReLU()
    (2): Dropout(p=0.8, inplace=False)
    (3): Linear(in_features=10, out_features=1, bias=True)
  )
)
Epoch 0 | Train Loss 0.020426, Train acc 0.64, Train aoc 0.55 | Valid Loss 0.022847 Valid acc 0.51, Valid aoc 0.49
Epoch 1 | Train Loss 0.020367, Train acc 0.64, Train aoc 0.58 | Valid Loss 0.023127 Valid acc 0.51, Valid aoc 0.52
Epoch 2 | Train Loss 0.020365, Train acc 0.64, Train aoc 0.60 | Valid Loss 0.023227 Valid acc 0.51, Valid aoc 0.55
Epoch 3 | Train Loss 0.020359, Train acc 0.64, Train aoc 0.62 | Valid Loss 0.023255 Valid acc 0.51, Valid aoc 0.55
…
