MainModel(
  (language_model): LanguageModel(
    (embed): Embedding(1, 25, padding_idx=0)
    (attention): Attention(
      (linear1): Linear(in_features=50, out_features=10, bias=True)
      (linear2): Linear(in_features=10, out_features=1, bias=True)
      (relu): ReLU()
      (softmax): Softmax(dim=1)
    )
  )
  (vision_model): VisionModel(
    (fc_layers): FCNet(
      (main): Sequential(
        (0): Linear(in_features=2048, out_features=2048, bias=True)
        (1): Tanh()
        (2): Dropout(p=0.2, inplace=True)
        (3): Linear(in_features=2048, out_features=2048, bias=True)
        (4): ReLU()
        (5): Dropout(p=0.2, inplace=False)
      )
    )
  )
  (attention): Attention(
    (linear1): Linear(in_features=2073, out_features=10, bias=True)
    (linear2): Linear(in_features=10, out_features=1, bias=True)
    (relu): ReLU()
    (softmax): Softmax(dim=1)
  )
  (vision_fcnet): FCNet(
    (main): Sequential(
      (0): Linear(in_features=2048, out_features=10, bias=True)
      (1): ReLU()
      (2): Dropout(p=0.8, inplace=False)
    )
  )
  (text_fcnet): FCNet(
    (main): Sequential(
      (0): Linear(in_features=25, out_features=10, bias=True)
      (1): ReLU()
      (2): Dropout(p=0.8, inplace=False)
    )
  )
  (classifier): Sequential(
    (0): Linear(in_features=10, out_features=10, bias=True)
    (1): ReLU()
    (2): Dropout(p=0.8, inplace=False)
    (3): Linear(in_features=10, out_features=1, bias=True)
  )
)
Epoch 0 | Train Loss 0.020621, Train acc 0.64, Train aoc 0.62 | Valid Loss 0.020946 Valid acc 0.63, Valid aoc 0.50
Epoch 1 | Train Loss 0.020296, Train acc 0.64, Train aoc 0.67 | Valid Loss 0.020733 Valid acc 0.63, Valid aoc 0.53
Epoch 2 | Train Loss 0.020109, Train acc 0.64, Train aoc 0.70 | Valid Loss 0.020692 Valid acc 0.63, Valid aoc 0.53
Epoch 3 | Train Loss 0.019716, Train acc 0.64, Train aoc 0.75 | Valid Loss 0.020639 Valid acc 0.63, Valid aoc 0.55
…
